final_exercise/checkpoint.pth (torch_old, 179288 bytes, 10 tensors)

conv1.weight f4 [6, 1, 5, 5]
00000000: 772b bfbd ab72 2f3d 6acc 96bc 6ab6 183e
00000010: 9041 593e 7391 9d3e 826c 633e de0f 80bd
00000020: b6d5 d73d 2039 9c3d 5b82 39bd 3668 96bd
00000030: e7e1 f73d b42d bd3b 0621 533d 53e8 3bbe
00000040: 1352 56bd 2158 3dbe bac4 67be 7d59 90be
00000050: e2a7 3abd 7c53 edbd 6814 02be 1b42 edbc
00000060: f5f0 e0bd 1674 493d d82e 90bd c75e 4d3e
00000070: 4a65 043e e374 0cbe 987a 91be 0e66 14be
00000080: 0be2 033b ee21 0f3e 3a13 623d de10 94be
00000090: ad1e 123b 5fdf c53e 548b debc 1c28 5f3d
000000a0: 3e4a 3abd 3018 8b3e 16ce 313e 3379 4bbc
000000b0: 5b51 10be db2f 613e ac97 cabd 9d37 e4bd
000000c0: 000c b6bd f195 133d 0c6a f13d 00ad f0bc
000000d0: 04e1 96be 2a52 7fbe 205d bbbd 2e73 003e
000000e0: c4fb 693e 22f0 fc3c dccd b2bc 5f5e ac3e
000000f0: 7609 233d 2ce9 693e 3b9e 063f 4b8b 483e
00000100: bf81 b0bd 5577 3dbe 63fd 89be 8603 8bbc
00000110: 74c4 103e 3ff3 e6bc ca22 053e f46f 27bd
00000120: 1ca9 18be 8745 d5bd 8876 163e b103 d33d
00000130: 3761 df3d 6501 e8bb 950b e1bd 0e6c 53bc
00000140: 6081 6bbd b0db 3f3e 948c c8bd fada 9abe
00000150: 5592 6dbd a612 30be a35e d43e a14d 35be
00000160: 1246 14be 5864 223e 71c3 8abe 8549 083e
00000170: 5d0a aa3d 21a7 043e 79c4 463e fd39 a93d
00000180: 5d8a efbb 7ce5 5c3e aaba c4bc a9cd 7bbe
00000190: b7b9 4cbe 621b b0bd 62e4 1c3d f136 a6bc
000001a0: 7181 ee3d e002 fcbd 12f1 8abe 317d 6cbe
000001b0: 3a84 c5bd 49a2 783d 8b35 8b3d 4532 14bd
000001c0: 7a7c 3bbe d9c5 8bbe 4286 14be 0d7c 703d
000001d0: 26c8 40bd 9ccb 3c3d 91d0 12bd f2bf 8bbe
000001e0: 1459 5a3e 16d9 533d e2ad 0a3d 20ef bc3d
000001f0: 422d e83d 2d70 703e afe4 87bb ce6c 55bd
00000200: 3dd9 30bd d33b 38be 09d6 30be 3310 06be
00000210: 46ac 2abe 7afe 68be da31 7ebe c790 1bbe
00000220: 13e2 2cbe 777e 80bd d76a b2bc 2da2 183e
00000230: 9504 87bd ee9f 42be ed56 cdbd 715b 623d
00000240: 1e30 c13d a38d 513e d615 d5bd ff42 663e
00000250: b3d5 003d 050b 8d3e
-0.09334462 0.042833965 -0.01840802 0.14913335 0.21216416 0.3077503 0.22209361 -0.062530264
0.10538809 0.07628083 -0.045290332 -0.073440954 0.12103634 0.0057732705 0.051545165 -0.18350343
-0.052324366 -0.1849065 -0.22633639 -0.28193274 -0.04557026 -0.11588189 -0.12703097 -0.028962186
-0.10983459 0.049182974 -0.07040185 0.20055686 0.12929264 -0.13716464 -0.28413844 -0.14492056
0.0020123746 0.13977787 0.055194117 -0.2891912 0.0022296116 0.3864698 -0.027166046 0.05448161
-0.04548096 0.2716689 0.17363772 -0.012419033 -0.14093535 0.21990912 -0.0989221 -0.1114342
-0.088890076 0.036031667 0.11787805 -0.029379368 -0.29468548 -0.24933687 -0.091486216 0.12543938
0.22849947 0.030876223 -0.021826677 0.3366575 0.039803945 0.22842854 0.5258519 0.19584386
-0.08618497 -0.18502553 -0.2695113 -0.016969454 0.14137441 -0.02819216 0.13001552 -0.04087825
-0.1490826 -0.10413652 0.14693654 0.103034385 0.10907214 -0.0070802444 -0.10988537 -0.01290418
-0.05749643 0.18736148 -0.09792438 -0.3024519 -0.05800088 -0.17194614 0.41478452 -0.17705394
-0.14479855 0.1585859 -0.27102235 0.13309295 0.08302758 0.1295438 0.19410886 0.082630135
-0.0073101954 0.21571916 -0.02401479 -0.24590172 -0.1999272 -0.08598973 0.03830374 -0.02028987
0.11645783 -0.12305236 -0.27137047 -0.23094632 -0.09644361 0.060701642 0.06797322 -0.036180753
-0.18309203 -0.27299383 -0.1450434 0.058712054 -0.047065876 0.046092615 -0.035843436 -0.2729488
0.21323043 0.0517207 0.033857234 0.09225297 0.11336757 0.23480292 -0.0041471343 -0.052105717
-0.043175925 -0.17991571 -0.17269148 -0.13092117 -0.1666728 -0.22753325 -0.24823704 -0.15191947
-0.16883115 -0.06274121 -0.02177946 0.14905615 -0.06592671 -0.19006321 -0.100263454 0.055262987
0.09433006 0.20464186 -0.104045555 0.22486494 0.0314538 0.2754747

conv1.bias f4 [6]
00000000: 15fa 01bf 05df f9be b902 1abf 82ba e4be
00000010: 42be 66bf 0f92 52bf
-0.5077222 -0.48802963 -0.60160404 -0.44673544 -0.9013406 -0.8225412

conv2.weight f4 [16, 6, 5, 5]
00000000: 3bc6 bdbe 0ca3 9b3d ca55 e93a c6f8 b1bd
00000010: 0f9e 26bc 0a57 c83d 1fb3 d03e 80a9 193e
00000020: 6985 5f3e 85f8 b93c 9dd6 40be 4924 20bd
00000030: 990e 04bd 9fe8 8c3e 7348 05be 6f31 97bd
00000040: b7f0 c4bd 1f5a c7bc 4f8b 1c3e f6f1 ab3c
00000050: 914e bc3b 4407 60bb 9362 1c3c dfa8 1abd
00000060: 66c7 31be 7041 aa3d e673 e53d 8bcd 3d3d
00000070: 5ba2 67be a7b1 92be 7cde aa3c 2eef 693d
00000080: a742 86be a1c8 edbd cf3b d9bd b516 333d
00000090: 305d 56be a851 093e e196 2d3e 61de 9f3c
000000a0: 3519 8f3d d063 c23d 86cf 7e3e 5e63 c13d
000000b0: 3957 ca3d ce18 ab3d 7024 1f3e abb6 083d
000000c0: eff5 e33d d587 d8bc cac1 25be c25b f23e
000000d0: 830d 4b3e 7de8 b93e eb00 153e 77e4 483e
000000e0: dabf b5bc bef1 a63d de83 293e 496f b73d
000000f0: 4e56 5dbe 43cc 023e 8e9a 63bc a183 c0bd
00000100: 01f3 54bc cf16 00be 2d42 b43b 4eb9 31be
00000110: c6c7 61be 81bf 1ebe 3e9d 84bd 8de0 b5bd
00000120: a640 36be 9bd1 a6be 36b5 bebe ffce 753e
00000130: d649 7c3e fedb f3bd cb50 b6be 398c bb3d
00000140: eed0 4bbe 44bb 0ebf e767 fcbd c7b7 5b3d
00000150: 7a5c 3b3e fbac 553c 744b 763e 4c10 a93d
00000160: 8e19 debd 4347 95bd 3562 cf3d 329b 253e
00000170: 11ee 67be 061e eebd 9e11 d83c 5033 1e3e
00000180: 7546 843e 77d8 04be 5600 9bbd 1199 5abe
00000190: 1d87 b93b eca4 14be b0ca 27be 371a 35bd
000001a0: a13e 0abc d816 16be 0c14 99be 5ddd fcbe
000001b0: f8ef 67be 20b5 10bd 4112 29be 68cd 603c
000001c0: c40f 11bd b6be ebbd 5edc 733c 2c89 2bbe
000001d0: ea12 77bd e347 a6bc 64a6 12be 8d53 033c
000001e0: e557 0bbe 336f 8dbd 6b31 e9bc 2f0a 83bd
000001f0: be49 42bd 5b7d cf3d b597 8b3e 61a5 3f3e
00000200: 835a b0be d5af 45be 27fc cf3b df20 27bf
00000210: de7a e7be c994 26be 20c6 c0bd ad5c 98be
00000220: 8f9d 17bd 20cd 5d3d ad53 23be cf5e c6bd
00000230: 0ae9 a0bd 4c77 36bd 8b51 80bd 5f73 5bbe
00000240: a7a6 66be dff2 37be 8a5c 35bd cb68 11be
00000250: 80f3 09be 617a d9bd 4044 a1be 5718 13be
00000260: 0e72 0b3e ab2e 6d3d 87c8 cf3c 081c 75bc
00000270: 3517 20be 315e 823d 9963 913d c2b1 16bd
00000280: 8d4c 093c f2c9 a83d 79bf 24bd e24e 25bd
00000290: a268 07be 2e7e 03be 1ecd be3c a8e4 54be
000002a0: 70ad 50be 501e 003e a207 353e 7799 ba3d
000002b0: a386 3cbc 72ec 15be 5e61 1a3e 7b62 dc3d
000002c0: 1e31 4a3e b23c fbbd 9e54 8c3d 49ac 90be
000002d0: 4655 003d ccb2 97bd b827 c9b9 00c8 e8be
000002e0: e815 92bd 1874 f53d 3995 e93b e91c 6bbe
000002f0: c44b 25bf 52f8 dabd fba7 113e 78de ae3d
00000300: aefc f4be c420 aabe eda9 733c 1042 e43d
00000310: 7d53 a53d e035 2bbe 61a2 023e 847b f63d
00000320: 65cd 2fbe f76e 7bbe bb42 56be 6660 5fbe
00000330: 1b43 3abd d664 aabe c50a 18bf 8cb2 1fbf
00000340: 1225 8cbe 8bd3 6cbe 4ed8 f4be 1846 2abf
00000350: 39d7 afbe 49cb 9bbe db59 9dbd 0c15 27bf
00000360: f936 0abf 9616 b4be b497 8abe 7114 49be
00000370: 99e1 96be 69a8 fdbe 6bec d3be 830b 86be
00000380: 3109 c3bd b78b c2be 4d44 31be cd2b aabd
00000390: 7890 3dbe ad60 1bbd 7990 a1bd aead eb3b
000003a0: 8885 673d 750e 113e eb4c eabc 3085 26be
000003b0: 8418 11bb 700f 6b3e 8d09 693d bee4 a8be
000003c0: 5929 5bbe cf97 00bd ce23 1e3d f384 90be
000003d0: 6351 75be 24ed e0bd 2628 cc3e 4661 0f3e
000003e0: e6a7 95bd 5548 23bf b09d 673c a223 6ebd
000003f0: 5b65 8ebc 3405 c4bd 6407 90bc 097e 3e3c
-0.370653 0.07599458 0.0017802056 -0.08690028 -0.01016952 0.097822264 0.4076166 0.15006065
0.21828236 0.022701511 -0.18831868 -0.039097104 -0.032240484 0.27521226 -0.13015918 -0.073824756
-0.09616225 -0.024334965 0.15287517 0.0209894 0.0057466705 -0.0034184018 0.009544986 -0.037758704
-0.1736122 0.083132625 0.112037465 0.0463386 -0.22620527 -0.28651163 0.020858042 0.057112865
-0.26222727 -0.116105326 -0.10607111 0.043722827 -0.20933986 0.13410056 0.16952087 0.019515218
0.0698723 0.09491694 0.24883851 0.09442781 0.09879918 0.083543405 0.15541244 0.03337733
0.111308925 -0.026431957 -0.16187206 0.4733563 0.19829373 0.36310187 0.14551131 0.19618402
-0.022186209 0.081515774 0.1655421 0.08956773 -0.21614954 0.12773232 -0.013891829 -0.09400106
-0.01299739 -0.12508701 0.005501053 -0.17355844 -0.22048864 -0.1550274 -0.06475304 -0.0888072
-0.17798099 -0.3258179 -0.37247628 0.24004744 0.24637541 -0.119071946 -0.35608515 0.09157605
-0.19903919 -0.55754495 -0.12324505 0.05364206 0.18296996 0.01304173 0.2405222 0.082550615
-0.10844718 -0.07288983 0.101261534 0.16172484 -0.22649409 -0.1162682 0.026375588 0.15449262
0.25835004 -0.129732 -0.075684234 -0.21347453 0.0056618587 -0.14516038 -0.16385913 -0.044214454
-0.008437783 -0.14657152 -0.29898107 -0.49387637 -0.22650135 -0.035328984 -0.1651087 0.013720848
-0.035415426 -0.115109846 0.014884083 -0.16751546 -0.060320772 -0.02029795 -0.14321285 0.0080155255
-0.13607748 -0.06905975 -0.028465947 -0.06398427 -0.047433607 0.101313315 0.2726418 0.18715431
-0.34444055 -0.19305356 0.0063471976 -0.6528453 -0.45210928 -0.16267695 -0.09412789 -0.29758206
-0.037015494 0.0541507 -0.15949889 -0.09686052 -0.07856949 -0.044547364 -0.06265553 -0.2143073
-0.2252451 -0.17963742 -0.044277705 -0.14200132 -0.13471794 -0.10619045 -0.31497383 -0.14364754
0.13617727 0.057905834 0.025364174 -0.014960296 -0.15633853 0.06365622 0.07099075 -0.036790617
0.008380068 0.08241643 -0.040221665 -0.04035843 -0.13223508 -0.12841102 0.023291167 -0.2079035
-0.20378661 0.12511563 0.17678693 0.09111302 -0.011506709 -0.14640978 0.15076205 0.10760971
0.19745299 -0.12267436 0.06852077 -0.28256443 0.031331323 -0.0740715 -0.000383673 -0.45465088
-0.071330845 0.11985034 0.0071283844 -0.22960247 -0.64568734 -0.106918946 0.14224236 0.08538526
-0.4784903 -0.33228123 0.014872056 0.11145413 0.08072565 -0.1671977 0.12757255 0.120352775
-0.17168196 -0.24554048 -0.20923893 -0.21814117 -0.045474153 -0.33280057 -0.59391433 -0.62381816
-0.27372032 -0.23127572 -0.47821277 -0.66513205 -0.3434389 -0.30428532 -0.07683154 -0.6526649
-0.5399013 -0.35173482 -0.27068865 -0.19636704 -0.29468992 -0.4954255 -0.4139131 -0.26180658
-0.095232375 -0.3799722 -0.17311211 -0.083091356 -0.18512142 -0.037933994 -0.07888884 0.007192335
0.05652383 0.14165671 -0.02860113 -0.16261744 -0.0022139857 0.22955108 0.056893874 -0.32987016
-0.21402492 -0.031394776 0.038608365 -0.28226432 -0.23956828 -0.10982731 0.3987438 0.1400195
-0.07307415 -0.63782245 0.014136717 -0.05813945 -0.017382314 -0.09571305 -0.01758165 0.011626729

conv2.bias f4 [16]
00000000: f795 9dbe 9ad1 033f 7c15 6bbe d31b 29bd
00000010: 0805 ed3d f73f 473e 6aa0 febd 24fd 02be
00000020: 9886 b4be a3cb 22be 6633 bc3e 511d 31be
00000030: 6324 38be 7929 7fbe 08f5 41be 0985 9d3d
-0.30778477 0.514917 -0.22957414 -0.0412863 0.11573225 0.19457994 -0.1243294 -0.12791878
-0.35258937 -0.15897994 0.36757964 -0.1729634 -0.1798263 -0.24918164 -0.18941128 0.0769139

fc1.weight f4 [120, 256]
00000000: bcb7 44bd 8e21 003b 8078 03b9 e3a4 a7bc
00000010: a8d7 0dbe 3dcd 03be 7ca5 fbbc d426 33bd
00000020: 68df cd3b 2b4c 85bd d278 acbd 032e 973c
00000030: 53a2 edbb b0f0 9abd 76c7 20bd 183a 5ebc
00000040: b3dc da39 dcb2 87bd 9942 b7bc ac44 033d
00000050: 89c5 413c 2728 a2bd 2b9c 0ebd ac20 34bd
00000060: 11f4 78bd 0583 dcbc c24a c33c e45a 97bd
00000070: 8da0 0c3d 1ee0 e83c 37d7 a4bd 4a9f 023b
00000080: 94f0 3cbd f803 6cbc 683e 83bd c0b9 0d3d
00000090: a5df 92bd 4992 aa3c 793b 45bd 9dc8 e5bc
000000a0: b4e0 4abd cb9a 8bbd dc11 92bd cf2d d1bb
000000b0: 9cbe 92bd 4e37 eabc ec5f 823a a6da 87bd
000000c0: 745e 94bd 0a08 62bc a082 0c3d 024b ebbb
000000d0: 65ad 40bc 555c 28bd c1af f5bc 38aa febc
000000e0: 77ff 283c 1058 60bd 9dd6 87bb a5e1 fabc
000000f0: 3f0f 313d abe0 23bd 50c4 40bd 54e4 cb3b
00000100: d916 b1bd cfe6 fb3c 5595 bfbb 09f0 aa3c
00000110: beab 0abe 201a ddbd 33be 533b a004 c73c
00000120: a710 a7bc 3e35 093c 2ea8 7bbd 5e72 f1bc
00000130: 8a67 5d3c 5dc1 44bd 2360 93bd 47ee cbbd
00000140: a569 9bbd 3fbe e0b9 3794 4bbd bc79 0fbd
00000150: 30be d93c 16b8 bfbb 1331 a9bd 8b1e 2ebd
00000160: 067c 98bd 1d42 583b 92f7 90bd b971 073d
00000170: 1fca ccbc c23d aebd 0ad3 ea3c 6501 1c3c
00000180: 602e e43b 53ff f83a 0aa0 4abd 6aac 80bd
00000190: 467b c23c ab96 bd3c f7c4 8f3d e491 a4ba
000001a0: 7690 6eba 24c6 1ebc d3d9 9cbd a452 773c
000001b0: fd01 ebbc 2de6 73bd 2fbb ef3c 296d 8abd
000001c0: 584c e5bc 0b15 0bbd 5dd4 06bd 94b4 053d
000001d0: 4b64 76bc 0406 633c c55e 52bb 1a4e f93c
000001e0: 27a2 24bd 1f62 35bd 4dd9 a4bd 1ec3 0bbd
000001f0: 2092 4fbd 854e e13c 7449 8dbc 8f67 a6ba
00000200: 151d 203d 57de 03bd 28de 2bbd dd36 0ebd
00000210: b823 2fbd 6be2 843c 5356 16bc 2e23 06be
00000220: 68f5 95bc d23d 173d 6d2c f4bb 598b 003c
00000230: e11c 1abc cf16 86bd cd9d 98bd 6f81 a7bd
00000240: be1f 50bd 08ae 97bd 55a7 82bd d7fa 053d
00000250: 28e6 a9bd 7edd b3bd 21a1 10bd 34ab bb3c
00000260: 0043 bbbb 8617 efbb 8561 1fbe 4eb9 bbbd
00000270: 0ae2 f9bc d5ad 71bd e757 0dbe adc1 1fbd
00000280: 03df c8bc 0542 1a3d a70d 0ebd 86b6 0dbd
00000290: 6553 d63b 354a 95bd f213 98bd cac7 c53b
000002a0: a510 c9bd 7112 5bbd be14 13bd 7579 233c
000002b0: 875f 37bc 7d77 0fbc 332d 0cbd 2ad4 603c
000002c0: 4964 77bd d8d6 c73c 3e9d 9fbb 28aa 9b3d
000002d0: 1ef2 35bd 1069 9abd 54e0 dcbd 953b a83c
000002e0: 4396 edbb 2f9b 26bd 09b6 6abd c80d 6ebc
000002f0: 1a71 09be 3e34 adbd c331 04be 388d 02be
00000300: f4b2 08bd 8ddc 93bd 9ee1 33bd 217b 70bd
00000310: 1528 8bbb 46a5 e5bb f5f5 7cbd 05c8 d63c
00000320: 3c09 7a3c 780c 33bd 93e5 28bd 1d6a 9fbd
00000330: 9e79 d6bd 8ada 2c3d 9b86 75bd 2885 063d
00000340: c2de 09bd e367 01bd f8ba d83c ce2c f2bd
00000350: 474a 84bd b8d7 b1bd 4451 54bd ce00 653a
00000360: 44d3 65bd e70e 90bd 2794 a6bd cc70 9f3c
00000370: 5be0 2bbd 51d9 76bc ef40 9abd 9154 9a3c
00000380: 8f90 78bd fd48 e8bc 7940 693d 8b12 b9bb
00000390: 1bef 81bd fe4c b6bd 43b9 03bd 3f52 423d
000003a0: 896c 3cbd 0a62 4bbd 3b4d 19bd c957 d13b
000003b0: b538 10bd 4039 2abd 7a32 293d 73ab a73c
000003c0: 70ba 8abd 98a0 8dbd ab2c fbbb f26a 0b3d
000003d0: 7d9f 92bd 7efc a33c dc9c cabd 717e 3abd
000003e0: 4a4f 2f3d fd7b 57bd daff 97bd dbd9 4b3d
000003f0: 0ef2 6abd 4991 3fbc 2bc3 54bd 05b0 9dbd
-0.048026785 0.001955125 -0.00012538023 -0.020464366 -0.13851798 -0.12871261 -0.030718558 -0.0437382
0.0062827356 -0.065086685 -0.08421482 0.018454557 -0.0072520166 -0.07565439 -0.03925272 -0.013563655
0.00041744634 -0.066259116 -0.022370623 0.032047912 0.011826881 -0.07917815 -0.034816902 -0.04397647
-0.060779635 -0.026917944 0.023839358 -0.07390383 0.0343328 0.02842718 -0.080488615 0.001993137
-0.04612787 -0.014405243 -0.064083874 0.034600973 -0.07171563 0.020821707 -0.04815242 -0.028049761
-0.0495307 -0.06816634 -0.07132313 -0.0063836346 -0.07165262 -0.028590824 0.00099468 -0.06633501
-0.07244578 -0.013795862 0.03430426 -0.0071805725 -0.0117600905 -0.04110368 -0.029991033 -0.031087026
0.010314814 -0.054771483 -0.004145457 -0.030625174 0.04322743 -0.040009182 -0.04706222 0.006222287
-0.08646936 0.030749707 -0.005846659 0.02086641 -0.13542077 -0.107959986 0.0032309412 0.024294198
-0.020393683 0.00837451 -0.061439686 -0.02947348 0.013513455 -0.048035968 -0.07196071 -0.09957557
-0.075885095 -0.00042866354 -0.049701896 -0.035028204 0.026579946 -0.005850802 -0.08261313 -0.042509597
-0.074455306 0.003299839 -0.0707847 0.03306744 -0.024998723 -0.08507873 0.028665084 0.009521817
0.006963536 0.0018996991 -0.04946903 -0.062828854 0.023740422 0.023143133 0.0701999 -0.0012555686
-0.0009100506 -0.009690795 -0.07658734 0.015095387 -0.028687472 -0.059545685 0.02926406 -0.06759102
-0.027990505 -0.033955615 -0.03291737 0.032642916 -0.01503856 0.013856415 -0.0032099944 0.03043275
-0.040193703 -0.04428303 -0.08049259 -0.034121625 -0.050676465 0.027503261 -0.01724694 -0.0012695658
0.039090235 -0.03219446 -0.04195991 -0.03472029 -0.042758673 0.016221246 -0.009175855 -0.13099357
-0.018305495 0.03692419 -0.007451585 0.007845723 -0.009406299 -0.06547319 -0.07451973 -0.081789844
-0.05081152 -0.07406241 -0.06379572 0.032709923 -0.08295852 -0.08782481 -0.035309914 0.022908784
-0.005714774 -0.0072965054 -0.15564544 -0.091662034 -0.030503292 -0.05900367 -0.13803063 -0.039003063
-0.024520403 0.037660617 -0.03468099 -0.034597896 0.006540703 -0.072895445 -0.07425679 0.0060357796
-0.09817628 -0.053484384 -0.035908453 0.009977688 -0.011192209 -0.008756516 -0.034222793 0.013722459
-0.060398374 0.024394438 -0.0048710397 0.07600814 -0.044420354 -0.0753957 -0.10784975 0.020536223
-0.0072505786 -0.04067534 -0.05730251 -0.014529653 -0.13422051 -0.0845723 -0.12909608 -0.12749183
-0.033373788 -0.07219801 -0.043916337 -0.058711175 -0.0042467215 -0.0070082275 -0.061758 0.026218424
0.015260991 -0.043713063 -0.041234564 -0.077839114 -0.104724154 0.042200603 -0.059942823 0.03284183
-0.033659704 -0.031593215 0.026456341 -0.11824952 -0.0645948 -0.08683723 -0.051835313 0.00087357766
-0.05610968 -0.070340924 -0.081337266 0.019462965 -0.04196201 -0.015066461 -0.07531916 0.018839153
-0.060684737 -0.028355116 0.05694625 -0.0056479624 -0.06344434 -0.08901404 -0.0321591 0.047441717
-0.046001945 -0.049654044 -0.03742717 0.0063886386 -0.03521033 -0.041558504 0.041307904 0.020467496
-0.067738414 -0.069153965 -0.007665237 0.034037538 -0.07159326 0.020017859 -0.098932 -0.04553074
0.042800225 -0.05260848 -0.07421847 0.04976831 -0.057359748 -0.0116923535 -0.05194394 -0.07699589

fc1.bias f4 [120]
00000000: 36aa 4f3b 8358 513d 91d4 813d 3c0a a2bd
00000010: 3b07 4d3d eb95 bc3d 2d28 913b 930f a93c
00000020: a3a8 c13d ba5d 4fbd 4451 903e 5631 923b
00000030: 81af 86be 1a87 dcbc f50c 43bd 244a 8f3d
00000040: aa2d 4cbd a8a7 9c3c 1abb d43d 4442 5ebd
00000050: 136c babd 5f14 733c a233 84bd 8627 21bd
00000060: 05e6 58bd c01a aebe e6f2 28b8 6bd5 e33d
00000070: 5b69 d5bd 0104 a2bd 9102 9abd 6635 b03a
00000080: 9016 abbd a979 d1bd cbb1 8fbd 944a 3abe
00000090: 9d49 8bbe c109 16bd 9b4e 153e 5534 433e
000000a0: 24af c23d d8f1 90bc 6484 dabe 404a 10be
000000b0: 222d 8dbb b2d5 a9bd 6ee4 823d 68a7 0c3e
000000c0: c802 65bd 95c8 b2bd 33b5 27bc 42df bd3d
000000d0: 2ac5 a83d f85e 75be 7f1c a8be 5abf 8cbd
000000e0: 521c 2ebd e879 013e 1418 3fbe 5ca1 26be
000000f0: 12fa c53d dd1c 6c3e 6ddb a73c 8931 d8bd
00000100: 40d5 a93c 6372 953b 457b 03be 82f5 60bc
00000110: eae7 0c3c ef85 8ebe 6591 0f3d 1f48 65be
00000120: 02a8 663d e95e 4dbe 7e78 45bc dca2 04bd
00000130: 423d 033e 8293 ae3d b7a5 ec3d 7bec 8a3d
00000140: 3bf1 a6bd 86bf 313d 55fd bebd e510 a0bc
00000150: e617 e0bd a83e f0bd b3a3 e3bc 48b8 39bd
00000160: 665b f1bd 85be c23d 30f2 10be a232 b93d
00000170: 9fc8 f9bc 984b d6bd 8a68 ac3d 7da1 a2bd
00000180: 6df0 873d 86db 64bc 5c27 08be 4a63 f7bd
00000190: fab3 17bd d9e7 843d 9924 0fbe bdde 92be
000001a0: 77e6 673e 3b2e 4b3d 55f4 03be 21ff 96bd
000001b0: 9d77 13bd e71d afbd 0ff7 06be 73b8 75bb
000001c0: 3f7f 4b3d bf6e bfbd bb74 0d3e 04ef acbe
000001d0: adc2 3bbc 1095 01be 5975 e93d a98e 33bd
0.0031687147 0.051109802 0.06339372 -0.07912108 0.050055724 0.09208282 0.004429838 0.02063731
0.09455993 -0.050626494 0.28187 0.0044614477 -0.26305774 -0.02691989 -0.04761978 0.06996563
-0.049848236 0.019122913 0.10387249 -0.054262415 -0.09102645 0.0148364 -0.06455161 -0.039344333
-0.05295374 -0.34004784 -4.0280538e-05 0.111246906 -0.104204856 -0.0791092 -0.07520021 0.0013443648
-0.08353913 -0.10228283 -0.07016333 -0.18192512 -0.272046 -0.036630396 0.14580767 0.19062932
0.09506062 -0.017693445 -0.4267913 -0.14090824 -0.0043083588 -0.08292712 0.06391226 0.13735735
-0.055910856 -0.08729664 -0.010236072 0.09271099 0.08240731 -0.23962009 -0.3283424 -0.06872435
-0.042507477 0.1264416 -0.18661529 -0.16272491 0.09666838 0.23057885 0.020490373 -0.10556323
0.020731568 0.004560755 -0.12839992 -0.013730409 0.0086002145 -0.27836558 0.03505077 -0.22390793
0.05631257 -0.20055737 -0.012052653 -0.032381877 0.12816337 0.08524229 0.11555045 0.06783386
-0.0815148 0.04339554 -0.09325663 -0.019539306 -0.10942058 -0.11730701 -0.027788019 -0.04534176
-0.11785011 0.09508995 -0.14154887 0.090428606 -0.030491171 -0.10463637 0.08418377 -0.07940958
0.066376545 -0.013968354 -0.13296264 -0.12079485 -0.037036873 0.06489534 -0.13978805 -0.2868556
0.22646509 0.049604636 -0.12886174 -0.07372881 -0.036002744 -0.08550625 -0.13180183 -0.0037493974
0.0496819 -0.09347295 0.1381406 -0.33776104 -0.011459989 -0.12654519 0.113993354 -0.043837223

fc2.weight f4 [84, 120]
00000000: 4010 60bd 367f 963e fcfb f3bd fa23 bc3d
00000010: 8e02 9e3d f9ed 373d 6c00 9d3d f7ec b6bb
00000020: 74b7 03be ab22 9dbd c4aa f1bd 3124 87bd
00000030: 6ab5 7cbd 40e5 b23c aaac 393e 4973 563e
00000040: f46d ebbd 0737 f53d 0603 3d3e 13e7 54be
00000050: 2e9d ac3d e5aa 9dbd 1d0f 8abc 088e 2abd
00000060: 0872 66bd 2c0b 823d f8ae 7f3d 8477 50bd
00000070: 9c35 3e3d d3ee 81bc 8638 1a3e 6a7e 93bd
00000080: 4d32 21be 7add e33d 447c 8d3d 886a 6f3d
00000090: f316 eabc 7cf8 8dbd 474e 2ebe 9b8f 8ebe
000000a0: 080d 983b db09 843d e727 003e 2e1b 63be
000000b0: 6c87 e3be f170 4c3d 63f7 063e b726 03bf
000000c0: f83b 20bd 0e41 d13c 3c42 8bba ffe4 b6bd
000000d0: 0c94 c53d bbd5 69bd e52a 16ba 2b8b c8be
000000e0: b09b c43d b45f 8fbe fd3d b8bd 2834 69bb
000000f0: affe a5be 5fa4 33be b745 fcbd ba30 ea3b
00000100: e8c7 b93c 399e bfbd b58c f33d c929 423c
00000110: 1486 9bbc a379 f13d bc14 a9bd bf28 4dbc
00000120: 113c 88bd ce14 0abe 5b80 63bd bc54 573d
00000130: 9d0c ff3d a640 3ebe c5ed bb3c 5f2e d2bd
00000140: 7519 df39 59c6 673e 84f2 153c 7c87 90be
00000150: 6c87 ad3b cd75 3fbd 0eb6 5f3d a7e6 8e3d
00000160: 2d75 053e ee1c 8b3c 2ea4 ecbd a99a 103e
00000170: 1e49 423e 3f57 413e 9024 7d3d 72df 973d
00000180: 5b4a 273e f54a 3039 447b 8dbe 79f8 29bd
00000190: 5744 1cbe adb2 193e 053c 0d3d b4f9 b33d
000001a0: bfd3 033e 0538 71be 6579 9cbe aa42 d63d
000001b0: f0b0 153d 3711 02bd d851 023d 2dde b0be
000001c0: 5884 a8bd c4b9 693d 2d26 5f3e f57a a33d
000001d0: 3caa 95bd a933 b3be 5425 37be 4074 40be
000001e0: d12e a1bb f011 a33d c576 403e 31e2 40be
000001f0: d62c 193c 1032 dfbd c7a8 b9bb 1545 e5bd
00000200: 3528 8d3d 207a 92be 1e96 e33d a400 5ebb
00000210: e6bf 78bd a743 2e3e e523 94be 354a 5abd
00000220: b224 56be 554d 93be 0c5b c6bd 21d5 96bc
00000230: 893d 08bd 7a22 c5bd e800 983d 4a86 0c3e
00000240: 82ad 3fbd 1531 953e 3858 95bd 1f85 0f3e
00000250: 2f19 3abe 6e60 803e 564b 9bbe f084 76be
00000260: 782c 03be f675 c8bd e21d 7b3d 7efb 813e
00000270: 1225 91be 807a 67bd b3ed 7d3e d5f0 753e
00000280: 2868 2e3e 8f47 8ebd 6049 1dbc 45c0 72be
00000290: 1fad 6ebe 52ef 4d3d 4c7f c43d 7d16 583a
000002a0: 7e08 e4bb 5612 bbbd 4cd2 0b3d b22c 5d3d
000002b0: 06ac 6cbb 6dff 813d edf2 093d 8a92 d8bd
000002c0: ded3 e9bd 7b27 e63d e4b0 f63d 9672 b9bc
000002d0: b56f c43d d74d 063e 5c3e b7bc aff6 dd3b
000002e0: a9c4 ea3d c2ff 8d3d a500 7fbe 8a49 92be
000002f0: dc79 94bd 8771 bebd 9580 7b3d 2eee d03b
00000300: 60c7 ac3d 3894 3ebe af09 63bc b2e1 9bbd
00000310: 1a75 553e 20df 9abc 76fb ad3e 6a23 3d3e
00000320: 1764 27bd d0db cebd c495 a43d 7d64 d1bc
00000330: 9b6d 82be 8ec5 b0be f090 8f3c 4efd afbd
00000340: efac 7f3e 23a7 a9bd c278 733c 7001 3a3e
00000350: 1fbb 413d 57bf 8e3d 7d3f 533e 5112 9dbd
00000360: 3552 fa3c c11b f0bd e8d3 d73c cbf5 1abe
00000370: d90a 283e 7377 043e 0b08 69be 14b6 9a3d
00000380: 6873 923e 81dd fb3d 4b90 25be 3e11 963c
00000390: bc8e 72be 3717 4ebe 997b 1abe 8260 32bd
000003a0: c08c 93bd 09cf 783d 40ff 883e c4aa bb3d
000003b0: 12f8 123e 0484 25be 1987 3f3d 2063 083e
000003c0: 2625 87bd ded1 cf3d f440 4bbe b7e3 44be
000003d0: 55df de3c 0ef6 74be b0e2 16bd 2cf2 eb3d
000003e0: 3dea 9fbd 68db 893b 6130 a5bb 7bae 49bc
000003f0: 204c c03e 40e1 a2bc 366b 01be 9583 09bd
-0.054702997 0.2939393 -0.119132966 0.091865495 0.07715331 0.044904683 0.07666096 -0.0055824476
-0.1286295 -0.07672628 -0.11800149 -0.065987 -0.061696447 0.02183783 0.18132272 0.20942415
-0.11495581 0.11973386 0.18458185 -0.20791273 0.08428417 -0.07698611 -0.01685291 -0.041639358
-0.056261092 0.06349787 0.062422723 -0.05089523 0.046437845 -0.01586095 0.15060624 -0.07201846
-0.15741844 0.11126228 0.069084674 0.058451205 -0.028575396 -0.0693216 -0.17022048 -0.27843937
0.0046402253 0.06447192 0.12515222 -0.22178337 -0.44439256 0.049912397 0.13180308 -0.5123095
-0.03911969 0.025543716 -0.0010624598 -0.08930396 0.09647378 -0.057088595 -0.00057284377 -0.39168677
0.096000075 -0.28002703 -0.08996198 -0.0035584066 -0.3242087 -0.17543171 -0.123179846 0.007146922
0.02267833 -0.093563505 0.11892072 0.011850783 -0.018984832 0.117907785 -0.08255908 -0.012521922
-0.06652082 -0.13484499 -0.05554233 0.052571043 0.12453578 -0.18579349 0.022940526 -0.10262751
0.00042552841 0.22634257 0.0091520585 -0.28228366 0.0052956846 -0.046743203 0.05461698 0.06977587
0.1303298 0.016981568 -0.11554752 0.14121498 0.18973204 0.18880938 0.061802447 0.07415666
0.16336958 0.00016812592 -0.27633107 -0.041496728 -0.15260445 0.15009566 0.034481067 0.087878615
0.12873743 -0.23556526 -0.30561367 0.10461934 0.036545694 -0.0317547 0.031816334 -0.34544507
-0.082283676 0.057061926 0.21791907 0.079824366 -0.0730786 -0.3500035 -0.17885333 -0.18794346
-0.004918911 0.07962406 0.18795307 -0.18836285 0.009349069 -0.108982205 -0.005665872 -0.11194817
0.068924345 -0.286088 0.11112617 -0.0033874894 -0.060729884 0.17017995 -0.28933635 -0.053293426
-0.20912436 -0.28769937 -0.096853346 -0.018412175 -0.03326181 -0.096257165 0.07422048 0.13723102
-0.04679633 0.2913901 -0.07292217 0.14015625 -0.1817367 0.2507357 -0.30330914 -0.24074149
-0.12809932 -0.09788124 0.061307795 0.25387186 -0.28348595 -0.05651331 0.24797706 0.24017651
0.1703192 -0.069472425 -0.0096000135 -0.23706158 -0.23308228 0.05027706 0.095945925 0.0008243097
-0.00695902 -0.09134357 0.0341361 0.053997703 -0.0036113276 0.06347547 0.033678938 -0.10574825
-0.114173636 0.11237999 0.12045458 -0.022637647 0.09591619 0.13115631 -0.022368602 0.0067737917
0.11463291 0.069335476 -0.2490259 -0.2857173 -0.07249805 -0.09298997 0.061401922 0.0063760495
0.08436465 -0.18611228 -0.013857289 -0.07611407 0.20845452 -0.018905222 0.33980912 0.1847054
-0.040866937 -0.1010052 0.08036378 -0.025560612 -0.25474247 -0.34525722 0.017525166 -0.08593236
0.24968313 -0.08283832 0.014860334 0.18164611 0.047297593 0.06970089 0.20629688 -0.07669509
0.030556777 -0.11724044 0.026346162 -0.15132825 0.16410388 0.12936191 -0.22756974 0.0755426
0.28603673 0.12298108 -0.16168325 0.018318769 -0.23687261 -0.20126043 -0.15086211 -0.04354907
-0.0720458 0.06074432 0.2675724 0.0916343 0.14352444 -0.16163641 0.0467597 0.13319063
-0.065988824 0.10147451 -0.19848996 -0.19227491 0.027206102 -0.23921987 -0.03683728 0.115208
-0.07808349 0.0042070635 -0.0050411676 -0.012309666 0.3755808 -0.019882798 -0.12638554 -0.033572752

fc2.bias f4 [84]
00000000: d9ee 803e dd91 bc3e 0d4d 0cbe 22bb 1d3e
00000010: a6d7 463e 9cbb 103d 5be3 fb3d 848b a03e
00000020: 28bb 523e b1e4 1ebe 1778 5d3d 8455 ba3c
00000030: 9bc9 c7bc b7f4 a73e a52b 93bc 0731 9b3e
00000040: c7aa 043e d258 223e 5e7e b23e 0c75 133e
00000050: 2846 483e f42b 5abe ab38 13be c3cc 5d3e
00000060: fe97 8d3c 4c34 9b3e 4ca6 a73e 3706 823e
00000070: 3cc5 8a3d fd51 923e 6116 763e ea63 a63e
00000080: 963a 833e 9c38 673e 405f b63d 207f 013e
00000090: e544 80be 5ec9 953e 5cc3 903e a1e5 533d
000000a0: b2a3 283e 10dd 4fbd 27b0 963e 0acf 55be
000000b0: f24d bf3e ae12 873c 91cd e23d 6130 ae3e
000000c0: 1093 d63d dcad 353e 8a6c a83c dc21 083b
000000d0: c380 853e d459 103e 0e53 3b3e 32d0 c93e
000000e0: 5914 0cbf 62fc ab3d b961 9e3d cf13 d43d
000000f0: 982b 0b3e c185 d33d c02a 083f e0af f53c
00000100: 55f7 3b3e 958e 743e f66f c23e 11f6 5d3e
00000110: c734 8f3e f2ef 5b3a 3f19 a53e 5f0e 203e
00000120: 4dd6 963e a247 333e 7f46 8b3e 1acf 1a3e
00000130: c3cd 633e fc64 9b3e a847 873e 420a 503e
00000140: fb30 fb3d 1d9b 503e 0a50 b33e ea55 bf3d
0.25182226 0.36830035 -0.13701268 0.15403417 0.19418201 0.03533517 0.12299224 0.31356442
0.20579207 -0.15516926 0.054069605 0.022745855 -0.024388125 0.3280389 -0.017965147 0.30310842
0.12955771 0.15854195 0.34862036 0.14400119 0.19558012 -0.2130583 -0.14377086 0.21660142
0.01728439 0.30313337 0.32744062 0.25395367 0.06775901 0.28578177 0.24031974 0.32498103
0.25630635 0.22580189 0.08904886 0.1264615 -0.25052562 0.29255193 0.28274047 0.051732663
0.16468695 -0.05074793 0.2943127 -0.2087976 0.37364155 0.0164884 0.11074365 0.34021285
0.10477269 0.17742103 0.020559568 0.0020772135 0.260748 0.14096767 0.18293402 0.39416653
-0.5471855 0.083977476 0.07733483 0.10355341 0.13590848 0.10328246 0.5319023 0.02999109
0.18356068 0.23882516 0.37976044 0.21675898 0.27969953 0.00083899416 0.32245824 0.15630482
0.29460374 0.17507794 0.27202222 0.15118065 0.2224646 0.30350482 0.26421857 0.20316413
0.12265202 0.20371671 0.35022002 0.09342559

fc3.0.weight f4 [10, 84]
00000000: e190 bc3d 2165 42be ed89 febd 6fbc 0cbe
00000010: 0989 64be 62c2 3dbd f024 b5bd 3fe6 0f3e
00000020: 9ce6 d83d cb5d 70be 7e42 b2ba 8992 d73d
00000030: 316d 9bbd 55d3 f9be 3fe5 ca3d 1614 c3bc
00000040: dc67 053e f7ef ffbd a28f 24be 086d b7bc
00000050: e52d adbd 952c 86be 2304 92bf 89df 5f3c
00000060: 9eec be3d 7eb4 32be 8610 3abe 2a56 aabe
00000070: d722 2ebe 45b3 41be c6e3 bb3d bad6 2d3e
00000080: 7a7f 8bbe 373d 04be 62c4 433e 712d 1c3e
00000090: 099b 6fbd c123 fd3d 10cd c23c d3c4 62be
000000a0: 1843 6fbe a1f8 94bd d991 b3bd 262f 29be
000000b0: 6882 8bbb 016f 9bbd 0052 11bc 5bf1 acbd
000000c0: ec6d 803d 2644 f6bd 99fa adbd 04f9 ccbd
000000d0: 95f1 243e 77f2 283e 853a a7be 134a a2be
000000e0: a92b 49be a6c4 57be 45e6 7c3b fa89 ef3d
000000f0: 71e1 113e fcbe cebe 5776 05be 0bd1 c3be
00000100: 989d 8fbd 3c43 48be 9a0e 7abe c458 bdbd
00000110: b837 2d3e b4f3 9a3d d680 003e cd62 243e
00000120: 351f 123e 4c3f 3e3e b459 69be c374 fa3d
00000130: 30c3 b2bd ee76 453d f0b7 6139 3f28 e4be
00000140: df6a c63c 00d9 6d3d 78d0 8bbe c33f 3bbe
00000150: 6c56 57be 4aa7 203e 04ba c1bd 56fd 733e
00000160: 4f8c 293d 6bde acbe c8d1 83be 9ce6 2d3e
00000170: 3513 c7bd 4ebc 39be 5aa5 613d 3989 963d
00000180: 8979 da3d b954 143d 5948 6fbe ef15 3c3e
00000190: d552 0f3d 1302 a43c 472d a9be 59a5 c7be
000001a0: 690e b3be ed37 c8bc 085f 79be 55c1 ba3d
000001b0: 52b0 15be 1351 adbc dad2 d5be 0cf2 95bd
000001c0: 2931 a2bd 25be 46be 6eb4 c9be 2033 e73d
000001d0: c91d 243e 443d 0f3e 649e d73d 5dbb 61be
000001e0: 49d3 b6bc 1b52 87bd fb42 73bd 7204 e73d
000001f0: 08fa a93d 477c a43a 8206 4fbe 3236 3d3e
00000200: 4141 85be f801 de3d 3e11 3a3e 4845 95be
00000210: c9dd 563d 05e1 87be 8204 26be 4bdc d2bd
00000220: a708 93be 134e 94bd 5633 2ebe d4b5 103e
00000230: 329b 37bd 53f1 a63d d027 a03d 27f1 39be
00000240: 54d4 59be 4b27 afbe 1f92 063e c71d 9fba
00000250: 95f2 f33d 8c2b 3e3e c8bb 523e 98d8 143e
00000260: 6d11 e7bc 6a7b 54be 8180 9abe d376 8cbe
00000270: 24b8 85be 4e39 99bd 013f 6fbe 1173 ba3d
00000280: e29b 4f3e dd17 84be 1bbc f73d 0f7b cc3c
00000290: cefb b0be 43aa 2abe 2b7c c3be 523c 2e3e
000002a0: af95 2c3d 0552 65be c7c1 25be 5e60 df3b
000002b0: 52e7 d63d 7e5b d0be 7253 d7bd a398 edbc
000002c0: 989d 203e 0595 af3d 455d d33d 4cb2 82be
000002d0: 5c18 c93d bbaf 66be 69fd 3f3d 15be cbbc
000002e0: 82e7 1fbc ce26 53bd 6ef0 bbbd 05cb d1bd
000002f0: 4fb2 13be 728a b03d 1281 1cbe 0c14 af3b
00000300: d97b d0bd fd38 2a3e 193c b53d 7db1 c2bd
00000310: 3daa dbbd 5ead 21be 4e87 5dbe a98b 84be
00000320: 3438 e33d ee82 cebe a888 d83d e9b2 07bd
00000330: 294d 9e3d 1ed3 87be 8466 aa3d 1cc6 353e
00000340: c8c4 1d3e 6ddd 09be dbdb de3d b3a1 89bd
00000350: 6134 393d 5d9d d53d cc75 1c3e 2afd c8bd
00000360: 0c86 c7bd aa77 ff3d 7249 253d 18ec 1a3d
00000370: fc80 c1bd 3b91 83bd 2464 f83d 9af9 a0be
00000380: e0fa 2cbe 2c84 a23d 33bd f43d 110b 50be
00000390: 9045 053e 1b78 4abe f5b0 83be 5542 003e
000003a0: 1eab 393e a2f2 9bbe 41b3 8fbd 74b0 0a3e
000003b0: 41ed 183e f3b0 78be 5c2c 61be 60cc bc3d
000003c0: d590 f63c c354 593d 9503 02be d5b5 243e
000003d0: acf0 173d a475 913d a122 b33c 86d9 09be
000003e0: 0c75 a8bd 45d0 84be bc0a 38be 9247 34be
000003f0: aa4d 393d 7c74 d3bd 4c8f adbd 82b7 1c3e
0.09207321 -0.1898389 -0.12428651 -0.13743757 -0.223179 -0.046327956 -0.08844936 0.14052676
0.1059086 -0.23473279 -0.0013600138 0.10525996 -0.07589186 -0.48794046 0.099070065 -0.023813289
0.130279 -0.124969415 -0.16070417 -0.022390857 -0.08456019 -0.26205888 -1.1407512 0.013664135
0.09322475 -0.17451665 -0.18170366 -0.33268863 -0.17005478 -0.18916042 0.09174304 0.16976443
-0.27245694 -0.12913977 0.19117883 0.1525171 -0.058497462 0.12360335 0.023779422 -0.22145395
-0.23365438 -0.07273985 -0.087680526 -0.16521892 -0.004257489 -0.07589532 -0.008869648 -0.084444724
0.06270966 -0.12024717 -0.08495063 -0.100084335 0.16107781 0.16498743 -0.32661834 -0.3169714
-0.19645561 -0.21071109 0.00385894 0.11696239 0.14246155 -0.40380085 -0.13033424 -0.38245425
-0.070124805 -0.19556898 -0.24419633 -0.09245446 0.16915786 0.07566014 0.12549147 0.16053315
0.14269717 0.18578833 -0.22788125 0.12229302 -0.08728635 0.048209123 0.00021526194 -0.44561955
0.024220882 0.058068275 -0.27307487 -0.18286042 -0.21029061 0.15688816 -0.09459308 0.23827109
0.041393574 -0.3376344 -0.25745988 0.16982502 -0.0972046 -0.18138239 0.055089332 0.07350392
0.10667712 0.03621361 -0.23367442 0.18367742 0.034991104 0.02002052 -0.33042356 -0.38993338
-0.34971932 -0.02444073 -0.24352658 0.091189064 -0.14618042 -0.021156823 -0.4176243 -0.073215574
-0.07919533 -0.19408472 -0.3939547 0.11289048 0.16026987 0.13988215 0.105282575 -0.2204413
-0.022317545 -0.06607457 -0.05939005 0.11280145 0.08299643 0.0012549245 -0.20217326 0.18477705
-0.26026347 0.10840219 0.1817064 -0.2915442 0.052457605 -0.26538864 -0.16212657 -0.10295924
-0.2871754 -0.07241454 -0.1701177 0.14131862 -0.04482574 0.08151498 0.07820094 -0.18158399
-0.21272403 -0.34209666 0.13141678 -0.0012139612 0.11911503 0.185713 0.20579445 0.14535749
-0.028206551 -0.20750204 -0.30176166 -0.27434406 -0.2611705 -0.07481633 -0.23363878 0.091039784
0.20274308 -0.25799456 0.12096425 0.024961023 -0.34567112 -0.16666512 -0.3818067 0.17015198
0.042134937 -0.22394569 -0.16187201 0.006816908 0.104933396 -0.40694803 -0.10513963 -0.029003447
0.15685117 0.08573345 0.10320524 -0.25526655 0.09819099 -0.22527973 0.04687253 -0.024870912
-0.009759786 -0.05155068 -0.09176718 -0.10243801 -0.14423488 0.08620156 -0.15283611 0.005342966
-0.10179872 0.16623302 0.08849353 -0.095065095 -0.1072583 -0.1578879 -0.21633646 -0.25887802
0.11094704 -0.40334266 0.1057294 -0.033129606 0.07729561 -0.26528257 0.083203346 0.17751354
0.15407097 -0.13463373 0.10881778 -0.06720295 0.045215968 0.10430405 0.15279311 -0.09813912
-0.09742364 0.12473996 0.040353246 0.037822813 -0.0944843 -0.06424185 0.12128475 -0.3144043
-0.16892576 0.07935366 0.119501494 -0.20316721 0.13014817 -0.19772379 -0.25720945 0.12525304
0.18131682 -0.30458552 -0.07016612 0.13543874 0.14934255 -0.24286251 -0.21989578 0.09218669
0.030098358 0.05305935 -0.12696679 0.16084988 0.037094757 0.07102516 0.021867098 -0.13461885
-0.0822545 -0.25940147 -0.17972845 -0.17605427 0.04524008 -0.10324952 -0.08474597 0.15304378

fc3.0.bias f4 [10]
00000000: 2c0a 253d 0253 ef3d 2ecc 26bc c7a8 8ebc
00000010: d432 953c 85dd e8bb 6213 a6be 6716 23bb
00000020: 778a 2f3e e9d7 9bbd
0.040292904 0.11685754 -0.010180516 -0.017414464 0.018212713 -0.0071064853 -0.32436663 -0.002488518
0.17142664 -0.07609541
